…
2022-07-20 07:39:18,086 - utils - INFO - Using CUDA on GPU 0
2022-07-20 07:39:18,087 - utils - INFO - Data base dir data/processedImage
2022-07-20 07:39:18,087 - utils - INFO - Loading vocab from data/xml_vocab.txt
2022-07-20 07:39:18,088 - utils - INFO - Load training data from data/train.lst
2022-07-20 07:39:19,713 - utils - INFO - Load validation data from data/validate.lst
2022-07-20 07:39:21,149 - utils - INFO - Building model
2022-07-20 07:39:21,149 - utils - INFO - Creating model with fresh parameters
2022-07-20 07:39:27,055 - utils - INFO - UIModel(
  (encoder): ImageEncoder(
    (layer1): Conv2d(1, 64, kernel_size=(3, 3), stride=(1, 1), padding=(1, 1))
    (layer2): Conv2d(64, 128, kernel_size=(3, 3), stride=(1, 1), padding=(1, 1))
    (layer3): Conv2d(128, 256, kernel_size=(3, 3), stride=(1, 1), padding=(1, 1))
    (layer4): Conv2d(256, 256, kernel_size=(3, 3), stride=(1, 1), padding=(1, 1))
    (layer5): Conv2d(256, 512, kernel_size=(3, 3), stride=(1, 1), padding=(1, 1))
    (layer6): Conv2d(512, 512, kernel_size=(3, 3), stride=(1, 1), padding=(1, 1))
    (batch_norm1): BatchNorm2d(256, eps=1e-05, momentum=0.1, affine=True, track_running_stats=True)
    (batch_norm2): BatchNorm2d(512, eps=1e-05, momentum=0.1, affine=True, track_running_stats=True)
    (batch_norm3): BatchNorm2d(512, eps=1e-05, momentum=0.1, affine=True, track_running_stats=True)
    (rnn): LSTM(512, 256, dropout=0.2, bidirectional=True)
    (pos_lut): Embedding(1000, 512)
  )
  (decoder): RNNDecoder(
    (dropout): Dropout(p=0.2, inplace=False)
    (embeddings): Embedding(303, 80, padding_idx=1)
    (rnn): StackedLSTM(
      (dropout): Dropout(p=0.2, inplace=False)
      (layers): ModuleList(
        (0): LSTMCell(592, 512)
      )
    )
    (attn): GlobalAttention(
      (linear_in): Linear(in_features=512, out_features=512, bias=False)
      (linear_out): Linear(in_features=1024, out_features=512, bias=False)
    )
  )
  (generator): Sequential(
    (0): Linear(in_features=512, out_features=303, bias=True)
    (1): LogSoftmax(dim=-1)
  )
)
2022-07-20 07:39:27,056 - utils - INFO - encoder: 6591232
2022-07-20 07:39:27,056 - utils - INFO - decoder: 3075760
2022-07-20 07:39:27,057 - utils - INFO - number of parameters: 9666992
2022-07-20 07:39:27,057 - utils - INFO - Lr: 0.100000
2022-07-20 07:40:02,857 - utils - INFO - Epoch: 0, Step: 50, Loss: 109.409538, lr: 0.100000, acc: 22.296399, ppl: 1.055457
…
